hparams: {'n_cnn_layers': 3, 'n_rnn_layers': 5, 'rnn_dim': 512, 'n_class': 29, 'n_feats': 128, 'stride': 2, 'dropout': 0.1, 'learning_rate': 0.0005, 'batch_size': 16, 'epochs': 10}
device: cuda
TRAIN LEN, TEST LEN: 737 82
SpeechRecognitionModel(
  (cnn): Conv2d(1, 32, kernel_size=(3, 3), stride=(2, 2), padding=(1, 1))
  (rescnn_layers): Sequential(
    (0): ResidualCNN(
      (cnn1): Conv2d(32, 32, kernel_size=(3, 3), stride=(1, 1), padding=(1, 1))
      (cnn2): Conv2d(32, 32, kernel_size=(3, 3), stride=(1, 1), padding=(1, 1))
      (dropout1): Dropout(p=0.1, inplace=False)
      (dropout2): Dropout(p=0.1, inplace=False)
      (layer_norm1): CNNLayerNorm(
        (layer_norm): LayerNorm((64,), eps=1e-05, elementwise_affine=True)
      )
      (layer_norm2): CNNLayerNorm(
        (layer_norm): LayerNorm((64,), eps=1e-05, elementwise_affine=True)
      )
    )
    (1): ResidualCNN(
      (cnn1): Conv2d(32, 32, kernel_size=(3, 3), stride=(1, 1), padding=(1, 1))
      (cnn2): Conv2d(32, 32, kernel_size=(3, 3), stride=(1, 1), padding=(1, 1))
      (dropout1): Dropout(p=0.1, inplace=False)
      (dropout2): Dropout(p=0.1, inplace=False)
      (layer_norm1): CNNLayerNorm(
        (layer_norm): LayerNorm((64,), eps=1e-05, elementwise_affine=True)
      )
      (layer_norm2): CNNLayerNorm(
        (layer_norm): LayerNorm((64,), eps=1e-05, elementwise_affine=True)
      )
    )
    (2): ResidualCNN(
      (cnn1): Conv2d(32, 32, kernel_size=(3, 3), stride=(1, 1), padding=(1, 1))
      (cnn2): Conv2d(32, 32, kernel_size=(3, 3), stride=(1, 1), padding=(1, 1))
      (dropout1): Dropout(p=0.1, inplace=False)
      (dropout2): Dropout(p=0.1, inplace=False)
      (layer_norm1): CNNLayerNorm(
        (layer_norm): LayerNorm((64,), eps=1e-05, elementwise_affine=True)
      )
      (layer_norm2): CNNLayerNorm(
        (layer_norm): LayerNorm((64,), eps=1e-05, elementwise_affine=True)
      )
    )
  )
  (fully_connected): Linear(in_features=2048, out_features=512, bias=True)
  (birnn_layers): Sequential(
    (0): BidirectionalGRU(
      (BiGRU): GRU(512, 512, batch_first=True, bidirectional=True)
      (layer_norm): LayerNorm((512,), eps=1e-05, elementwise_affine=True)
      (dropout): Dropout(p=0.1, inplace=False)
    )
    (1): BidirectionalGRU(
      (BiGRU): GRU(1024, 512, bidirectional=True)
      (layer_norm): LayerNorm((1024,), eps=1e-05, elementwise_affine=True)
      (dropout): Dropout(p=0.1, inplace=False)
    )
    (2): BidirectionalGRU(
      (BiGRU): GRU(1024, 512, bidirectional=True)
      (layer_norm): LayerNorm((1024,), eps=1e-05, elementwise_affine=True)
      (dropout): Dropout(p=0.1, inplace=False)
    )
    (3): BidirectionalGRU(
      (BiGRU): GRU(1024, 512, bidirectional=True)
      (layer_norm): LayerNorm((1024,), eps=1e-05, elementwise_affine=True)
      (dropout): Dropout(p=0.1, inplace=False)
    )
    (4): BidirectionalGRU(
      (BiGRU): GRU(1024, 512, bidirectional=True)
      (layer_norm): LayerNorm((1024,), eps=1e-05, elementwise_affine=True)
      (dropout): Dropout(p=0.1, inplace=False)
    )
  )
  (classifier): Sequential(
    (0): Linear(in_features=1024, out_features=512, bias=True)
    (1): GELU()
    (2): Dropout(p=0.1, inplace=False)
    (3): Linear(in_features=512, out_features=29, bias=True)
  )
)
Num Model Parameters 23705373
Train Epoch: 1 [0/11790 (0%)]	Loss: 9.025771
Train Epoch: 1 [1600/11790 (14%)]	Loss: 2.969345
Train Epoch: 1 [3200/11790 (27%)]	Loss: 2.918808
Train Epoch: 1 [4800/11790 (41%)]	Loss: 2.947035
Train Epoch: 1 [6400/11790 (54%)]	Loss: 2.905164
Train Epoch: 1 [8000/11790 (68%)]	Loss: 2.911574
Train Epoch: 1 [9600/11790 (81%)]	Loss: 2.859403
…
